pi/fc0/kernel:0.npy (npy, 640 bytes, 1 tensors)

array f4 [2, 64]
00000000: d8b4 223e 0819 ea3e 26e9 c43b 305d d43e
00000010: 9f9b 17bd 03d8 bdbe 4174 50be 2e23 943e
00000020: 1cf8 2e3f 7154 d2bd 7b84 963e 5f68 513f
00000030: e987 13bf a871 6c3e 527d b4bd a4fd 133d
00000040: bbde c1bd 90b7 db3e 56ad ee3e d825 b3be
00000050: 9138 8b3e 17fb 2d3f b13b 99bc 639b 0abe
00000060: e833 483f 21e3 113d 1e8d 07bf 0b6a af3e
00000070: aeab d13d fd11 95be 9e78 533e efdd cabe
00000080: 8151 4e3e b597 9a3e 74cc 323e 0188 d9ba
00000090: 58b7 0e3f d5a6 adbd daee 16bf b004 cf3d
000000a0: fde3 023d d11f 263d 566b c83e 9f0b 4c3f
000000b0: c7ea 043e d070 cf3e f6b6 ab3e d6dd 823e
000000c0: f394 3b3f 98bc f73d e8bc 9f3e 9ff4 133f
000000d0: a56b 0940 0ba3 dcbe 7750 a03e d424 f8be
000000e0: 7e79 4e3e bc12 383d 579c 0cbe 04ea e13e
000000f0: cd8a b93e 999b 143f abc6 9f3e 084b ae3e
00000100: 60f2 893d 5407 133e 0032 6f3d 4839 26bd
00000110: bd35 65be c310 0ebe 54b0 003f c99b 0bbf
00000120: 2022 33be fef7 003e 157f aa3d 3854 07bf
00000130: bd3f 433f 836c c03d 544e 953e 6a97 9a3e
00000140: a72c 603e 4e04 033e 3a61 0d3e 8171 353f
00000150: 0f60 a53d c3ce 72be d2fc 90bd 76ce 5b3e
00000160: 587b 40bf 8026 b53e f71e abbc 77d1 c33d
00000170: 93a1 8fbd 8118 c6bd 4918 ecbc 9c91 fdbd
00000180: ba80 c83d c5da b73d 63e9 b63d 4036 793e
00000190: 8ee2 39bd 58ca 943e 414d c33c 639d a03d
000001a0: d876 943d 211a c1bd 0cf3 f43d 993b 643d
000001b0: d0b0 7f3e f0cb ec3d 7040 a3bb 6597 96be
000001c0: 2f1b 8c3e 731d 803e a6bb cf3d e725 adbc
000001d0: 5bef 2c3e 1e1d e7bd 3630 c23d 77a3 f0bd
000001e0: ec0b ab3d dc9e bcbd 52a8 313e 030c f93d
000001f0: 9fe0 df3d 1d67 acbb d5d5 b43e 55e2 e43d
0.15889299 0.45722222 0.006009239 0.41477346 -0.037013646 -0.37078866 -0.20356847 0.2893309
0.68347335 -0.10270012 0.2939795 0.8179988 -0.5762926 0.23090231 -0.088129655 0.036130562
-0.094663106 0.42913485 0.4661662 -0.3498981 0.27191594 0.6796126 -0.01870522 -0.13535838
0.782042 0.035616998 -0.529497 0.34260592 0.102378234 -0.29115286 0.2065148 -0.39622447
0.20148279 0.30193868 0.17460805 -0.0016596318 0.5574851 -0.08479086 -0.5895821 0.10108316
0.031955708 0.040557686 0.3914439 0.7970523 0.12980185 0.40515757 0.33538026 0.25559872
0.73274153 0.12096518 0.31198812 0.5779514 2.147195 -0.43093142 0.3131139 -0.48465598
0.20163533 0.04493974 -0.13731514 0.44123852 0.3623871 0.58049923 0.3120626 0.3404162
0.067356825 0.14358264 0.058397293 -0.04058197 -0.22383781 -0.13873582 0.50269055 -0.54534584
-0.17493486 0.12594602 0.0832502 -0.5286288 0.7626913 0.09395697 0.29161322 0.30193645
0.21892034 0.12794611 0.1380662 0.7087632 0.08074962 -0.23711686 -0.07079472 0.21465477
-0.7518821 0.35380936 -0.020888789 0.095614366 -0.0701324 -0.096726425 -0.028820174 -0.123812884
0.09790178 0.08977274 0.08931234 0.24337101 -0.045382075 0.29060626 0.023840548 0.07842519
0.0724923 -0.09428812 0.1196042 0.0557209 0.24969792 0.115623355 -0.004982047 -0.2941238
0.2736449 0.25022468 0.10143213 -0.021136237 0.16888182 -0.112848505 0.09481852 -0.117499284
0.08351883 -0.092099875 0.17349365 0.12160494 0.10931515 -0.0052613155 0.3531939 0.11175982
