pi/fc1/kernel:0.npy (npy, 16512 bytes, 1 tensors)

array f4 [64, 64]
000000 18 1a 1f be 8a 10 2b be 79 6d 43 3d 57 7c 5b 3e
       -0.15537298 -0.16705528 0.047711823 0.2143415
000010 9a ed 27 be 78 91 e2 bb 8c c0 46 3e bb f1 ca 3d
       -0.16399232 -0.006914314 0.19409388 0.09909388
000020 ea ef b0 3d 0d 52 6a 3e 14 a2 e6 bd 9b 71 c2 3c
       0.0863951 0.22882862 -0.11261383 0.023735812
000030 7f 00 b8 3d 79 f7 14 bc bb 9d 96 3e aa b2 86 3e
       0.089844696 -0.009092205 0.29417214 0.26308185
000040 6c 78 05 be 0d 09 7b 3e 05 a7 4b 3d e6 a2 9e 3d
       -0.13034219 0.24515171 0.04971983 0.07745914
000050 78 93 ac 3e 5f 00 23 be 44 d6 a4 3e d8 90 72 3e
       0.3370626 -0.1591811 0.32194722 0.23688066
000060 2c 09 2e bf 7d 4a 09 3e 2a 9a f9 3a 64 d1 d6 bc
       -0.67982745 0.13407321 0.0019043137 -0.026222892
000070 2a be 59 3d 66 f9 59 3d c6 de 36 3e 4a c0 a7 3e
       0.05315987 0.05321636 0.17858419 0.32763892
000080 8c b4 ee 3d dc 66 00 bd 0e 09 5f 3e 12 cf 81 3e
       0.1165553 -0.031348094 0.21780798 0.25353295
000090 51 f4 78 bd e0 50 31 3e e5 13 17 3e 56 17 20 be
       -0.060779873 0.17316008 0.14753683 -0.15633902
0000a0 a7 cf b8 bd 72 24 e6 3d a3 06 92 3d 55 7c 47 3e
       -0.090239815 0.1123742 0.07130172 0.19481023
0000b0 77 e4 d4 bc d7 f8 92 bb ef c5 58 3e d1 c1 4c 3e
       -0.025987847 -0.0044852304 0.21169256 0.1999581
0000c0 91 a7 68 3e b8 0b 22 3e bf 1c 01 3e 47 3e 22 3e
       0.22720172 0.15824783 0.12608622 0.1584407
0000d0 56 d9 7c 3e aa 9b 9c 3d 60 07 86 bd 1b 9b 4e bc
       0.24692282 0.07646878 -0.065443754 -0.012610222
0000e0 c5 0c 4f 3e 9f 98 01 3e 98 d5 17 3e 1f 1c 1c 3d
       0.20219715 0.12655877 0.14827573 0.038112756
0000f0 b3 47 f3 bc ce 16 56 3d 12 fa 53 bd 28 65 59 3e
       -0.029697275 0.052267842 -0.051752158 0.21229994
000100 4f 13 18 be c9 e2 3e bb 18 44 93 3e e6 21 b1 bc
       -0.14851116 -0.0029126874 0.2876289 -0.02162261
000110 3a 7e 4f bd d2 06 6a 3d ee ac ed 3c f3 f6 98 3d
       -0.05065749 0.05713541 0.029013123 0.07468977
000120 44 82 5e 3d d6 a4 85 3e 66 d8 0a 3e cd c7 98 bd
       0.05432345 0.26102322 0.13559112 -0.07459984
000130 a0 6c 08 be 37 35 a3 bc 03 9e 87 3e 1a 6f 0e bd
       -0.13322687 -0.019922836 0.2648774 -0.034773923
000140 90 59 3f be 4a 64 af 3c 8a cf 06 3e 60 98 19 be
       -0.18686509 0.021410126 0.13165107 -0.14999533
000150 ea f4 80 3e 20 2b ab 3d a8 1a 53 3e b6 ed 73 3e
       0.25186855 0.08357835 0.20615637 0.23821148
000160 9a c0 6e bf 92 3c 6f 3d 0b 1a e2 3d 09 a2 c1 3e
       -0.93262637 0.058407374 0.110401236 0.37818936
000170 2d 59 b4 3d f0 d3 92 bd 86 93 8e 3e c3 72 c7 3e
       0.088060714 -0.0716933 0.27846926 0.38954744
000180 c2 89 cb 3d 00 af 77 3d 37 71 ca 3b 20 03 03 3e
       0.099383846 0.060469627 0.006178047 0.12794161
000190 21 43 50 bd 94 e5 c3 39 d3 dc ed 3d c1 1e 65 3e
       -0.05084527 0.00037364347 0.116143845 0.22375013
0001a0 b3 4e 16 be c6 43 5b be 4b ec 0c 3e f8 55 06 3c
       -0.14678459 -0.21412572 0.13762014 0.0081992075
0001b0 ed 46 02 be 29 03 94 3e d4 95 85 3e 2d b2 bb 3e
       -0.12722369 0.2890866 0.26090872 0.36659375
0001c0 02 4c 4c be 3b d8 45 3d fd be f9 bd 5e 9c 88 3e
       -0.1995087 0.048301917 -0.12194631 0.266818
0001d0 16 b5 4f bd d8 3f 8f bd 55 a3 37 be 42 99 94 3e
       -0.050709806 -0.06994599 -0.179334 0.29023176
0001e0 4c b4 1a 3e 97 cb 5c 3e 79 95 98 3b 1e f7 70 bb
       0.1510784 0.21562038 0.0046564904 -0.0036768387
0001f0 5c 27 7a 3e 1a ac 2e be c1 ca 79 3e ce 45 14 3e
       0.24429077 -0.17057839 0.2439375 0.14479753
000200 14 39 3e be c9 9e 9e 3d 46 b7 64 3e 39 d2 a2 3e
       -0.18576461 0.077451296 0.22335538 0.31801012
000210 87 10 32 3e e4 83 c6 3c d6 a9 32 be dd f7 01 bd
       0.17389117 0.024232812 -0.174476 -0.03173052
000220 50 ea 38 3d 11 e2 4d 3e 92 c6 7f 3e da 49 1a 3e
       0.045145333 0.20105769 0.24978092 0.15067235
000230 9c bd 34 3e 40 db 3b 3d c9 0a 1d 3e 70 ad 87 3e
       0.17650455 0.04586339 0.15336145 0.2649951
000240 f3 fb e2 bd 94 b8 38 bd f7 0d a4 bc 49 7e 8f bd
       -0.11083212 -0.045097902 -0.02002619 -0.07006509
000250 f9 f5 a5 3d 60 e1 76 3e 2d b6 36 3e 32 05 2e 3e
       0.08103556 0.24109411 0.17842932 0.1699417
000260 94 54 60 bf b6 43 64 3c 51 c2 dc bd 0e 51 f1 3d
       -0.87629056 0.013932159 -0.107792504 0.11783038
000270 c5 44 1f 3e df 61 97 bd 91 bf 70 3d f2 79 52 3e
       0.15553577 -0.07391714 0.058776442 0.20554331
000280 45 b4 8b 3d 21 76 82 3e 84 29 96 3e 72 db 02 3e
       0.06821493 0.2548075 0.2932855 0.12779024
000290 b7 68 93 3c 22 03 e8 3d 63 75 1d 3e df 13 0b be
       0.017994268 0.113287225 0.1537681 -0.13581799
0002a0 6d b8 4f 3e 0a b8 dc 3d 17 76 33 be 52 42 cc 3d
       0.20285197 0.1077729 -0.17525516 0.09973587
0002b0 3f f1 95 3d 0f b0 d7 bd 05 27 8c 3e 85 53 bf 3e
       0.07321405 -0.105316274 0.2737352 0.37368408
0002c0 37 41 ed bc 6d aa 9f 3c c7 8e dc bd b1 fb b7 3e
       -0.02896176 0.019490445 -0.1076942 0.35934213
0002d0 ec d4 9a 3c 6f f3 b9 bd 34 f8 5d be 96 7b 2d bd
       0.018900357 -0.090796344 -0.21676713 -0.04235419
0002e0 33 dc 64 3d a7 b8 91 3e 94 8c 43 3e 04 0d 5f bd
       0.05587406 0.2846119 0.19096595 -0.054455772
0002f0 ef 1c 19 3e 58 06 27 bd 31 3e 9b 3e 95 d5 11 3e
       0.14952444 -0.040777534 0.30320886 0.14241631
000300 6a 97 6a 3e a6 48 d0 3c 1e e9 67 3d df 40 38 be
       0.22909322 0.025425266 0.056618802 -0.17993496
000310 4c 8b 3a 3e 66 42 a0 3e c7 ec 37 3e 84 45 c3 3d
       0.182172 0.31300658 0.17961417 0.095347434
000320 e1 fa ce 3d 6d 18 84 bd 29 29 47 be a2 39 77 3e
       0.10106445 -0.06449971 -0.19449295 0.24143079
000330 8d 62 d6 3e a0 1f 6d 3d 30 26 81 3d 7c 39 0f 3d
       0.41872063 0.057891488 0.06306112 0.03496693
000340 3e f8 a4 3e a0 84 8a 3e 53 69 a0 3e 98 1f 8f 3e
       0.32220644 0.2705431 0.31330356 0.27953792
000350 8d 89 59 3d cd f4 36 3e c2 bc c2 bd c0 5a 15 3e
       0.053109694 0.17866822 -0.09508659 0.145854
000360 45 9f 93 3e c4 2a 96 3d 18 16 99 3e 97 ac 39 3e
       0.2883245 0.07332376 0.2989967 0.18132244
000370 e7 73 14 3c 01 c6 fe 3d 71 ae 90 bd d0 a4 05 be
       0.009060836 0.1244011 -0.07064522 -0.13051152
000380 72 5d 18 3e 2e 2a fb 3d 8a 94 9e 3d ec c2 3d bb
       0.14879397 0.122639045 0.07743175 -0.0028955294
000390 f4 15 a8 3e 01 00 d5 bd a2 b7 79 be b1 27 ba 3e
       0.3282925 -0.10400391 -0.24386457 0.36358407
0003a0 df 1d 88 3d 64 a4 1d be c6 b0 2a 3e 89 d5 ba 3e
       0.066463225 -0.15394741 0.16668996 0.3649104
0003b0 e2 9e de 3d ae 57 7d be 07 40 35 be b8 51 c1 3d
       0.10870148 -0.24740478 -0.17700206 0.09439415
0003c0 72 39 1c 3d 70 02 36 3e 1f f3 82 3e a3 b0 d0 bd
       0.03814072 0.17774367 0.25576112 -0.10189941
0003d0 19 79 b0 3d 5e b8 6f be 8a a6 f8 3d 44 f8 08 3e
       0.086168475 -0.23410174 0.1214114 0.13375956
0003e0 83 4d 6f 3d 86 c9 1f 3d 06 8f 84 3e 07 ae bb 3e
       0.05842353 0.039010547 0.25890368 0.3665621
0003f0 73 d9 30 3e 1e 94 b2 3e cf 9c 61 bb d8 5a a8 3e
       0.1727045 0.3487863 -0.003442574 0.32881808
