model/without_constraints/fc1/kernel:0.npy (npy, 16512 bytes, 1 tensors)

array f4 [64, 64]
000000 71 0e 57 3c ce 04 45 3c ad f2 84 3e 58 43 3d 3e
       0.013126002 0.012025071 0.25966397 0.18482721
000010 3c d0 74 be 4d 30 65 bd ab 5e 0b 3e 19 e7 5a 3e
       -0.2390756 -0.055954266 0.13610332 0.2137722
000020 27 29 35 be c7 75 07 3e 79 26 c8 3e 2b 77 14 be
       -0.1769148 0.13228522 0.39091852 -0.14498584
000030 bd fc 81 3e 2b 03 ca 3b 5a ab 20 bd 3c 6d 3f be
       0.25388137 0.0061649284 -0.039225914 -0.18694013
000040 5d 4e 93 3e 58 1b 01 3e 7f 0f 0f 3e 74 1e 1e bd
       0.28770724 0.12608087 0.13970755 -0.03860326
000050 6f 0c 98 3e ec dd 57 3d 54 36 22 bd 19 4b f4 3d
       0.29696986 0.052701876 -0.039602593 0.11928386
000060 3c 64 53 be e9 0a d2 be d0 f3 48 3e 56 62 0c 3e
       -0.20643705 -0.4102395 0.19624257 0.13709387
000070 bc f1 41 be c7 f8 28 3e 06 22 7d be b3 4e 7c 3c
       -0.1893987 0.16501151 -0.2472001 0.015399623
000080 69 ef b3 3e 11 e9 19 be 7c 7f 06 bd 3c a6 fd 3d
       0.35143593 -0.15030314 -0.032836422 0.12385222
000090 18 57 97 3e 8d 17 f5 be 21 a8 90 be 55 f6 84 3d
       0.29558635 -0.4786953 -0.28253272 0.064922966
0000a0 03 4c f7 3d a3 0b 00 be 94 92 66 3e 92 69 e8 bd
       0.12075045 -0.12504439 0.22516853 -0.11348261
0000b0 32 f6 37 3d 88 c6 84 3e 36 8e 0f be 6e a1 f1 3d
       0.044912525 0.25932717 -0.14019093 0.117983684
0000c0 78 98 79 3e a8 6a d9 3d 1f 6c db bb 81 8e 90 3e
       0.24374568 0.10616046 -0.0066962386 0.28233722
0000d0 9e 6a 14 ba b0 8b 8e be ef 22 06 bf 4f 5c e1 be
       -0.0005661639 -0.27840948 -0.52397054 -0.44015738
0000e0 e8 cc 7a bd 0f 2d f0 be 86 af b1 3a e8 47 66 be
       -0.06123057 -0.46909377 0.0013556338 -0.22488368
0000f0 57 59 26 bf 58 d2 d9 3c 6a e0 e6 3d bb 8f b6 3e
       -0.6498007 0.026589558 0.11273272 0.35656533
000100 17 18 1c 3e d2 59 b6 bd 39 2d e2 3d dd 3c 80 3e
       0.15243565 -0.089038506 0.11043782 0.25046435
000110 3f 47 db bc b8 d6 26 be d8 47 b2 3e b8 12 1b bd
       -0.026767371 -0.16292846 0.34820437 -0.03785965
000120 12 cc 14 3e e0 67 4e 3c 31 9a 26 bd d8 6c 8b 3e
       0.14530972 0.012598008 -0.040674392 0.2723148
000130 32 39 3e 3d 8d 9b 5a be 62 09 78 3e ab 54 5f be
       0.046441264 -0.213484 0.2422233 -0.21809642
000140 06 80 17 be b5 9c 96 bd bf a2 92 3d f6 76 71 3d
       -0.14794931 -0.07354108 0.071599476 0.05895134
000150 17 d3 64 3d b4 1f 3d be 87 a5 b3 3d 0c b4 7b be
       0.055865373 -0.18469125 0.08771806 -0.24580401
000160 81 b2 2f bd 26 4b 25 3d e8 8d ac 3c f0 60 28 3e
       -0.042894844 0.04035487 0.02106376 0.16443229
000170 2b 08 34 3e 0b 28 74 3d 9c 3c 39 bd cf db 61 be
       0.17581241 0.0596085 -0.045223817 -0.22056507
000180 f9 30 a8 3c a0 74 79 3e 20 d0 4c 3d 6f e5 12 3e
       0.020531164 0.24360895 0.05000317 0.14345334
000190 15 b2 ea 3d ae a1 50 3d 50 9f 52 be 28 7c c8 be
       0.11459748 0.05093544 -0.20568585 -0.39157224
0001a0 5a 6e 4d 3e da 85 83 3d 16 ec 25 3e 06 c6 95 3e
       0.20061627 0.064220145 0.16203341 0.29252642
0001b0 3e d5 55 be 66 6b a3 3c 4f ac 23 3e 50 db b0 bd
       -0.20882127 0.019948673 0.159837 -0.086355805
0001c0 77 bb 3f 3d 28 3e c4 bd 2c e0 18 3e 45 c0 8a 3d
       0.04680964 -0.09582168 0.14929265 0.06774954
0001d0 66 8f 5d be 51 30 f0 3b 6e ff 3a 3d e1 bd cb bd
       -0.21636733 0.0073299785 0.045653753 -0.09948326
0001e0 36 a2 99 3d f5 2b b2 bd de 6c cd 3d fe ba 67 be
       0.075016424 -0.086997904 0.100305304 -0.22629926
0001f0 03 b3 ab be 45 70 4a be 7b 0a 1d 3e f6 91 da bd
       -0.33535013 -0.1976939 0.15336029 -0.10672371
000200 d1 d1 23 3d c3 37 1e 3e 85 85 4b 3b 16 48 08 3e
       0.03999502 0.15450959 0.0031054926 0.13308749
000210 74 60 f5 bc de 36 27 be 79 71 77 3e 2f 15 0e be
       -0.029953219 -0.16329524 0.2416438 -0.13875268
000220 aa 43 ff 3d 56 cc 5a 3e 62 51 9d 3c 14 65 55 3e
       0.12464078 0.2136701 0.019203845 0.2083934
000230 29 ff 88 be d2 58 c6 3d 58 cc d2 3b c6 7c 29 be
       -0.26757172 0.0968491 0.006433051 -0.16551504
000240 72 28 15 3e 77 0d 3e 3b 92 26 c2 3d 70 d5 10 3f
       0.1456621 0.0028999725 0.09480013 0.5657568
000250 27 06 6e be 4d 0d 96 bd bc 70 2c be 9b ea 6c be
       -0.23244534 -0.07326756 -0.1683988 -0.2313637
000260 c5 a4 3d 3e 40 1f 88 bd 02 0f 5b 3e dc cc b0 bd
       0.18519886 -0.066465855 0.21392444 -0.08632824
000270 af 4f 41 3d 51 52 ab 3d b3 b7 08 3e 2a 39 1c 3e
       0.047195133 0.0836531 0.13351326 0.15256181
000280 c5 df 09 be 84 be 8a bc a7 22 33 3e 3d a7 44 be
       -0.13464268 -0.016936548 0.17493688 -0.19204421
000290 dc 8b 6e be b3 e5 47 bd 74 fb dc 3d 1f 75 5d bf
       -0.2329554 -0.048803043 0.107901484 -0.8650684
0002a0 84 ef cb bd 5f f4 c4 3d f0 5b 49 3d ce 2e 7f 3e
       -0.09957793 0.096169226 0.049159944 0.24920198
0002b0 2c 15 30 3e 6b 97 aa bd b0 68 5e 3e db 4a 59 3d
       0.17195576 -0.08329662 0.21719623 0.053049903
0002c0 fc ab f5 3d 47 ed 67 3d 98 82 a7 3c 2c bd 35 3e
       0.11995694 0.05662277 0.020448014 0.17747945
0002d0 21 45 85 bd 1e 96 c1 bd 3b 50 9f 3e 33 14 5b 3e
       -0.06507326 -0.09452461 0.31115898 0.21394424
0002e0 05 d7 2b 3d 99 a1 05 3e ce 15 af bd 7e 66 38 3d
       0.041953105 0.13049926 -0.08549081 0.04501962
0002f0 b8 ba 84 be d8 5c 99 bd 07 16 72 bd d9 bc 2d bc
       -0.25923705 -0.07488412 -0.05910304 -0.010604107
000300 20 1a 67 3e 4a 5d 0e be ad 61 88 3e 84 f8 49 be
       0.2256856 -0.13902774 0.2663702 -0.19723707
000310 27 ff 14 bd 51 17 28 3e 15 e5 aa be 29 7d eb 3e
       -0.036376145 0.16415145 -0.333779 0.45993927
000320 4a 4a 10 3d a5 77 d7 bf 3f f2 11 3f a0 63 d6 be
       0.035227098 -1.6833388 0.57010263 -0.41872883
000330 a0 4c 88 3d ba 81 ab 3e f0 f6 de be c4 70 4d 3e
       0.0665524 0.3349741 -0.43547773 0.20062548
000340 26 a0 8a 3e 55 ae cd be 5c aa bc be 44 e8 20 bf
       0.2707531 -0.40172067 -0.36848724 -0.6285441
000350 d9 70 01 3f 7a e7 2f 3e e1 99 06 bd 5a 7d d9 3e
       0.50562817 0.17178145 -0.032861594 0.42478448
000360 60 1a ac bd 27 48 e2 be b7 f1 54 3d df d7 ae 3e
       -0.08403468 -0.44195673 0.05198833 0.34149072
000370 8c 78 ae be b7 e0 f6 3e 3c cb 7a be 68 45 f8 3e
       -0.34076345 0.4821832 -0.2449159 0.48490453
000380 d1 9e 09 3f d1 53 47 bd 6e 56 d5 3d 21 9a 99 3e
       0.5375796 -0.048663918 0.10416876 0.30000404
000390 06 5f 42 3e c8 e6 2c be a6 b3 bb bc aa ca be 3d
       0.18981561 -0.16884911 -0.022912811 0.09315999
0003a0 0c 59 2b bd 39 0e 86 be 33 13 87 3e 99 24 ea bb
       -0.04183297 -0.26182726 0.26381835 -0.007145476
0003b0 f6 89 ce 3e 0d 29 fb 3e e0 32 87 bd 55 51 2f bd
       0.4033963 0.49054757 -0.066015005 -0.042802174
0003c0 09 37 1a 3f 61 35 b7 be 2d 66 f4 3e 30 91 9f 3e
       0.60240227 -0.35782912 0.47734204 0.31165457
0003d0 2b 36 96 be d8 bf 85 3e 65 9b 45 be fc 2d 62 3f
       -0.29338202 0.26122928 -0.1929756 0.88351417
0003e0 29 36 80 be 11 a0 f3 be 7e c4 51 3e 95 80 22 3e
       -0.2504132 -0.47583058 0.20485112 0.15869363
0003f0 12 f2 72 3f 2b e3 14 bd c6 7c 6b 3e 35 3c 1b 3f
       0.9490062 -0.036349457 0.22996816 0.60638744
