model/without_constraints/fc0/kernel:0.npy (npy, 640 bytes, 1 tensors)

array f4 [2, 64]
0	0x3e74e5a5	0.23915727
1	0x3ef897e3	0.4855338
2	0x3eca0db2	0.39463574
3	0x3f9d09e6	1.2268646
4	0x3f07c4a8	0.5303445
5	0x3f04bbff	0.5184936
6	0x3f0af4d7	0.54279846
7	0xbe8d2628	-0.27568173
8	0x3f20b000	0.62768555
9	0x3f1c8d5c	0.611532
10	0xbebd784e	-0.37005848
11	0xbf90369a	-1.1266663
12	0x3f7aa62f	0.97909826
13	0xbe1e8726	-0.15481243
14	0xbefc3cb2	-0.49265057
15	0x3f230c92	0.63691056
16	0x3f2eb7d9	0.6824928
17	0xbf184d97	-0.5949339
18	0xbdac1869	-0.08403093
19	0xbd5292bb	-0.051409464
20	0x3edc4059	0.43017843
21	0xbd0b0fb0	-0.033950508
22	0x3f0d25b9	0.55135685
23	0x3e0f4fa4	0.13995224
24	0xbea652ce	-0.3248505
25	0x3e2bb2cd	0.16767426
26	0x3da39608	0.079876006
27	0xbd07bad3	-0.033137154
28	0x3f2e0771	0.67980105
29	0x3eb22a29	0.3479779
30	0x3f09a486	0.5376667
31	0x401eb2e0	2.4796677
32	0x3ec5ef33	0.38659057
33	0xbe6f7072	-0.23382738
34	0xbefcbc8b	-0.49362597
35	0x3f531b75	0.8246377
36	0xbebd7f8d	-0.37011376
37	0xbeade336	-0.3396241
38	0xbe3b70a2	-0.18304685
39	0x3efdb7e7	0.4955437
40	0xbecd2891	-0.40070012
41	0x3fadd456	1.3580425
42	0x3ee2e1c2	0.44312865
43	0x3f23bd54	0.63960767
44	0x3c9ad16d	0.01889869
45	0x3dc0e040	0.09417772
46	0x3f470982	0.7774888
47	0xbee61704	-0.44939435
48	0xbe46dca0	-0.194201
49	0xbe439b8d	-0.19102307
50	0xbe03a93a	-0.12857524
51	0xbf2aec7f	-0.66767114
52	0x3e0d7b13	0.1381648
53	0x3f046132	0.5171081
54	0xbe18c93c	-0.14920515
55	0xbee7c4dc	-0.4526738
56	0xbcfaae5b	-0.030600717
57	0xbdfe25fb	-0.12409588
58	0x3f278b46	0.6544689
59	0x3f5a9c92	0.8539516
60	0xbe8916d5	-0.26775232
61	0xbeeb9fbb	-0.46020302
62	0x3fa1e43d	1.2647778
63	0xbe94c138	-0.29053664
64	0xbda6fc88	-0.08153635
65	0x3ec8d4fe	0.39225
66	0x3ece40a1	0.40283683
67	0xbf51dbdd	-0.8197611
68	0x3d7605c6	0.0600641
69	0x3d66c689	0.05634168
70	0x3f49eb83	0.7887499
71	0xbdb612ee	-0.08890329
72	0x3d4b7034	0.049667552
73	0xbf071618	-0.5276809
74	0x3f8c127c	1.0943141
75	0x39e496ff	0.0004360005
76	0xbe25e6f1	-0.16201378
77	0xbe8bbd61	-0.27292922
78	0x3cb8ac25	0.022543022
79	0xbe47fa35	-0.1952904
80	0xbea9de73	-0.33177528
81	0xbeaf6c4a	-0.34262305
82	0xbdce3f62	-0.10070683
83	0x3d6e90e6	0.058243655
84	0x3dd09ad9	0.10185785
85	0xbc291961	-0.010320992
86	0x3e13ded5	0.14440472
87	0x3e1a4b9f	0.1506791
88	0xbe3719e6	-0.17880973
89	0x3e8078b9	0.25092104
90	0xbf7b362a	-0.9812952
91	0xbfc4e234	-1.5381532
92	0xbd9bbf43	-0.0760484
93	0x3de6afc9	0.11263997
94	0x3d9730d9	0.07382364
95	0x3e0c7121	0.1371503
96	0x3e071c85	0.13194473
97	0xbde37d7b	-0.11107918
98	0x3ead16fd	0.338066
99	0x3e568b3e	0.20951554
100	0x3d92776c	0.07151684
101	0xbcc83c86	-0.024442922
102	0xbe882e92	-0.2659803
103	0x3e165268	0.14679873
104	0x3d4ad1c6	0.04951646
105	0xbd4492db	-0.047991615
106	0x3df6aff3	0.120452784
107	0x3f098a2a	0.53726447
108	0xbd4eb77a	-0.050467946
109	0x3e6e464c	0.23269004
110	0xbe663d50	-0.22484326
111	0x3e0e39df	0.13889264
112	0xbe1cbe63	-0.15307002
113	0x3c299ee0	0.01035282
114	0x3d796db4	0.060895637
115	0xbd8b1021	-0.06790186
116	0x3db4e14e	0.08832036
117	0x3e1f94eb	0.15584151
118	0x3c9eee89	0.019400852
119	0x3ee1aa0e	0.44075054
120	0xbee2aa9d	-0.44270793
121	0xbe02ac51	-0.12761046
122	0xbf4ce5b5	-0.80038005
123	0xbee61898	-0.4494064
124	0x3ebd2e32	0.36949307
125	0x3eb93dfa	0.36180097
126	0x3d208780	0.039191723
127	0x3d3809ba	0.04493115
