model/pi/fc0/kernel:0.npy (npy, 640 bytes, 1 tensors)

array f4 [2, 64]
0	0x3f3fd476	0.74933565
1	0xbee56de6	-0.44810408
2	0xbe32b2cf	-0.17451023
3	0x3f32fe5c	0.6991937
4	0xbeb47160	-0.35242748
5	0xbdd8018c	-0.1054717
6	0xbe75af84	-0.23992735
7	0x3f1414a4	0.57843995
8	0xbe977e8f	-0.29588744
9	0x3ee01c4d	0.43771592
10	0xbe9ecf93	-0.31017742
11	0xbdb64dfe	-0.089015946
12	0xbe65b9d9	-0.22434177
13	0xbcba0859	-0.022709059
14	0x3f24514d	0.64186555
15	0x3fe262fc	1.7686458
16	0xbe838525	-0.2568752
17	0xbe52dcb2	-0.20592001
18	0xbe0616c8	-0.13094628
19	0xbdff20fe	-0.12457465
20	0x3ea1f275	0.31630293
21	0x3f44262d	0.7662075
22	0xbe5f8eb0	-0.21831775
23	0xbf98a9a6	-1.1926773
24	0xbe51eb2c	-0.20499867
25	0x3dd02a93	0.101643704
26	0x3f228e88	0.63498735
27	0xbeec2e2c	-0.46128976
28	0x3fcab8a9	1.5837604
29	0xbf54d041	-0.8313027
30	0x3fbc2c49	1.4701015
31	0xbe9eeb5b	-0.31038937
32	0xbe4c5ac7	-0.19956504
33	0xbe50dba6	-0.20396289
34	0x3f084758	0.5323386
35	0x3f6c05fa	0.9219662
36	0xbdf3b4e5	-0.11899737
37	0xbe827c90	-0.2548566
38	0xbf000bd8	-0.5001807
39	0xbe30c66b	-0.1726319
40	0xbe080c56	-0.13285956
41	0xbfcf58be	-1.6198957
42	0xbf0d3089	-0.55152184
43	0x3f9c21d4	1.2197824
44	0x40104894	2.2544298
45	0xbec81da7	-0.39085123
46	0xbed9947f	-0.42496106
47	0xbf83052e	-1.0235956
48	0xbe196981	-0.14981653
49	0xbde93a0e	-0.11388026
50	0xbe1edaa6	-0.15513095
51	0xbe8c1189	-0.27357128
52	0xbd5ddf81	-0.054168228
53	0xbdd4eeba	-0.10397096
54	0xbe882e43	-0.26597795
55	0xbed03109	-0.4066241
56	0x3fde25a7	1.735524
57	0xbe2e7548	-0.17036927
58	0xbf22a152	-0.63527405
59	0xbd8186b5	-0.063245215
60	0xbe551e8e	-0.20812437
61	0xbead4de2	-0.33848482
62	0x3f050b26	0.51970136
63	0x3f947d62	1.1600764
64	0x3ea49977	0.32148334
65	0x3d01bee1	0.031676177
66	0x3e90776f	0.2821612
67	0xbd5f85ff	-0.054571148
68	0x3dab9eb6	0.08379881
69	0xbeaa4458	-0.33255267
70	0x3e576251	0.21033598
71	0x3c69176c	0.014226776
72	0xbcdcb68b	-0.026942512
73	0x3e8016d9	0.2501743
74	0x3da89ca7	0.08233004
75	0x3e8b4eb8	0.27208495
76	0x3d18574d	0.03719263
77	0xbe6e6927	-0.232823
78	0x3e2d8eae	0.16948959
79	0x3ee1f2e9	0.44130638
80	0x3e040f22	0.12896398
81	0x3e3efb8a	0.18650642
82	0x3d57df1f	0.05270302
83	0x3e9ea98e	0.30988735
84	0xbea13415	-0.31485048
85	0x3cfe7d28	0.031065539
86	0xbe24cd5b	-0.16093962
87	0xbe8d81ac	-0.27637994
88	0x3e83316d	0.25623646
89	0x3fb24bb6	1.3929355
90	0x3d7f0064	0.062256232
91	0x3f50b96b	0.81532925
92	0xbfa00184	-1.2500463
93	0xbe851632	-0.25993496
94	0xbf7f311c	-0.9968431
95	0x3e3ad44d	0.18245049
96	0x3db7cb84	0.089743644
97	0x3e2cfb8d	0.16892834
98	0xbe5d69e7	-0.2162243
99	0xbf3c74f7	-0.73615974
100	0xbe9617ff	-0.29315183
101	0x3d797cd0	0.060910046
102	0xbdf85a19	-0.1212656
103	0x3db493cd	0.08817253
104	0x3e917bda	0.28414804
105	0x3f2ebfe4	0.6826155
106	0xbd34dc35	-0.04415532
107	0x3f5f44ff	0.87214655
108	0xbeb685ff	-0.35649106
109	0xbe2fc78f	-0.1716597
110	0xbd800330	-0.06250608
111	0xbd17938a	-0.03700594
112	0x3eb39fc9	0.35082844
113	0xbe678b92	-0.22611836
114	0x3e3d7581	0.18501855
115	0x3dc00316	0.093755886
116	0xbe66a71e	-0.22524688
117	0xbe6a160e	-0.22859976
118	0x3dfd723f	0.12375306
119	0x3d2d629b	0.042330366
120	0xbf71b389	-0.94414574
121	0x3dc5ff43	0.09667828
122	0xbdd084c5	-0.10181574
123	0x3e8fd5b4	0.2809273
124	0x3e85e5e8	0.26151967
125	0x3ddd3856	0.10801761
126	0x3e31423a	0.1731042
127	0x3eeebc90	0.46628237
