model/pi/fc1/kernel:0.npy (npy, 16512 bytes, 1 tensors)

array f4 [64, 64]
00000000: bc61 e4bf b3cd 16c0 7a8f 3f3e ad43 e2bd
00000010: efa8 ec3f 4471 a43e 2f64 fcbf eb60 453e
00000020: 31b4 f1be 51bc b73d fc55 dfbf 5414 4c3d
00000030: be1d 0040 4cab ed3f 0445 483e e775 7a3e
00000040: 3b26 ad3e 89d0 b93b fdc9 e73f b040 61bd
00000050: 7d19 c43e ead2 02bd 1d75 813e 5987 b33d
00000060: c166 0fc0 d7f1 863e eb45 cf3e 99b8 8a3d
00000070: e026 013e 9c2a 1ec0 6cfc 733e bfbb 3c3e
00000080: d095 57bb 6d6f c63e 4b35 ed3f 065a 813e
00000090: 85d6 0040 2eb8 a43e 84ea fb3f dddb d7bd
000000a0: 1304 a43d 421b ad3c f05c 05bd 2626 9e3e
000000b0: 294a 573e 78a7 11c0 672c 823e dca1 ec3f
000000c0: 1827 4c3e a55c 6c3e 7018 e03d de78 bf3d
000000d0: da21 ff3d dc2d 16c0 3d8d 7f3e 3e6e 8abd
000000e0: 2d69 6abd 19a2 d43e d991 0a40 bb10 9a3e
000000f0: 60a6 1c3e 426f 8a3d 7e76 843b a0ad 2c3e
00000100: ceea b0be b4a5 c7be ed23 45bc 0000 9e37
00000110: d9b2 c13e 8aaa 323e e296 66be 82d7 953d
00000120: dc50 14bc 0482 0e3e 08c7 afbe da9d 933d
00000130: 84cc 393e 66ad fa3e 695c 0abe f8c3 17be
00000140: fc9c 4bbe 3269 c2bd a716 fabd 6136 04bd
00000150: ae8e 28bd 0b21 dbbb c790 233e 30b4 193d
00000160: d410 0dbf 82b2 133d d638 87bd d4b4 dd3d
00000170: 78ff 61be 95b3 f3be 85b5 283e f85d febc
00000180: 4016 84bd 4997 9d3b 3393 ad3e 6dcd dcbd
00000190: 263a f43e e100 c0bd b198 933e 39bf 103e
000001a0: 88b2 4dbd a85a bb3d d0ff 1fbd 7504 b1bd
000001b0: 73c2 1abd b992 09be de9f fbbd 19de 983e
000001c0: 7580 283e 4de4 8bbc 69bd 8e3b baec eb3d
000001d0: 502b 52bc 3895 b2be f34b 2b3e 0e7f f9bc
000001e0: 4140 e93d 2bdb 94bd 013e 8e3e 93c9 dfbd
000001f0: 4924 14be b147 893d 3a51 e33d 62a3 75be
00000200: 28b1 4bbd 50c2 88be bfed 06be 6b49 2fbe
00000210: 4802 043e 77b5 0ebd 1199 aabe fdac 613e
00000220: e7dc 01be 4bad 9abc a4fa 63be fd54 0fbd
00000230: 5f2c 6d3e 2de4 b13e 95d8 413e b8bf 8e3e
00000240: fe01 fabd 38d5 c33d 5ef9 b73e f310 3c3e
00000250: 84e3 cb3d a863 8c3e 3edd f43d 72de e63d
00000260: 3074 c8be e87d d8bd b810 9cbc b4f1 9bbd
00000270: 51b8 033e 2eb1 6cbe 9c94 573e 3770 0b3e
00000280: c63f 1b3e add1 d03d 9053 f93e 6cd3 70bd
00000290: d5ed d23e d99a 743e 6e87 123e 7f86 2c3e
000002a0: eb32 033d bdc9 0f3e ec2a 61bd 0b98 f93d
000002b0: dee1 21bd 1c55 9fbe e954 903e 204c 8e3e
000002c0: 831c 003e e659 723e 8569 a83d a017 5abd
000002d0: 45ce 273e 0e05 a2be 0be9 eb3d ee15 de3e
000002e0: 6452 1a3e 7d76 9b3e 37e2 dc3e 6fb5 733e
000002f0: 24f2 8a3c 0010 62bd e79a 6fbc 2c9d 023e
00000300: a91c a63d dc9b 95bd d100 1fbf f82b efbd
00000310: 66d6 d83e aee6 90be ee19 593e ddeb 1abf
00000320: f6cc 0cbc fc04 bebe 46ea 153f 53bc 15bf
00000330: c9fb df3e 1f24 c53e 957c babe 6dbc 65bf
00000340: 4b61 debe f246 ccbf d489 09bf febc 5ebe
00000350: cf72 51bf 98f0 21bf 2be6 cebe 9f37 08bf
00000360: 44fb ab3e f955 ecbe 345f 51bf 2c43 00bf
00000370: f68f b2be ee38 7abd 5a65 29bf a2be ff3d
00000380: 2a7a e4be 7f9f aabe a93e c83e 5b3f 18bf
00000390: bddc 0c3d 4655 b3be b815 623e 0f4d 043e
000003a0: d538 01bf a0f3 d2be 0021 903b a81c 17bf
000003b0: 0244 e4be 11e9 7d3e 2d2b 0abf 448d b13e
000003c0: c05f 09bf e0c0 c2be be3f 1ebf 6cc5 20be
000003d0: 4143 f8be 2f27 063e ac76 b3be 8f26 cabe
000003e0: a2b5 62bf bf9f 4abf b6b9 b33e edab 59bf
000003f0: 234b 76be 476d c2be 896d edbe 7cd0 b2be
-1.7842326 -2.356305 0.18707076 -0.110480644 1.8489054 0.32117665 -1.9718074 0.19275253
-0.47207788 0.089714654 -1.7448115 0.049824074 2.0018153 1.8567901 0.19557577 0.24459039
0.3381823 0.0056706113 1.8108517 -0.05499333 0.38300696 -0.031939425 0.25284663 0.0876605
-2.2406466 0.26356384 0.4048303 0.067734905 0.12612486 -2.4713507 0.2382676 0.18430994
-0.0032895692 0.38756886 1.8531889 0.25263995 2.0130932 0.32171768 1.9680943 -0.105399825
0.080085896 0.021131162 -0.032559335 0.3088848 0.21024384 -2.2758465 0.254245 1.8486896
0.19936788 0.23082216 0.10942161 0.093492255 0.124576285 -2.346549 0.24956222 -0.06759308
-0.05722921 0.4152992 2.1651518 0.3009089 0.15297842 0.06759502 0.0040424457 0.16863108
-0.34554142 -0.3899361 -0.012032491 1.8835068e-05 0.37831762 0.17447868 -0.22518495 0.073164955
-0.0090524815 0.13916785 -0.34331536 0.07207842 0.18144423 0.48960418 -0.13511814 -0.1482085
-0.19884104 -0.09492721 -0.12211352 -0.032278422 -0.041151695 -0.0066872886 0.15973197 0.037525356
-0.551038 0.03605891 -0.066026375 0.10825506 -0.2207011 -0.47597948 0.16475494 -0.031050667
-0.06449556 0.0048092944 0.33901367 -0.10781369 0.47700614 -0.09375168 0.28827432 0.14135446
-0.05021909 0.09148151 -0.03906232 -0.08643428 -0.037783097 -0.13434877 -0.122863516 0.29856947
0.16455252 -0.017076636 0.0043560755 0.115197614 -0.012827709 -0.3487947 0.16728191 -0.030456092
0.113892086 -0.072683655 0.2778168 -0.10927119 -0.14466967 0.06703127 0.11099477 -0.23988107
-0.049729496 -0.2671075 -0.1317663 -0.1711785 0.12891495 -0.034841027 -0.33319905 0.22038646
-0.12681924 -0.01888146 -0.2226358 -0.03499316 0.23161457 0.34744397 0.18930276 0.27880645
-0.12207411 0.095621526 0.3593244 0.1836584 0.099555045 0.27419782 0.11956261 0.11272897
-0.39151144 -0.1057089 -0.01905094 -0.076144606 0.1286328 -0.23114464 0.21052784 0.13617025
0.15161046 0.101962425 0.48696566 -0.058795378 0.41197076 0.23887195 0.14309475 0.16848181
0.03203098 0.14041801 -0.054972574 0.12187203 -0.039522044 -0.3111962 0.2818978 0.27792454
0.12510876 0.23667106 0.08223251 -0.053245187 0.1638728 -0.3164448 0.11519059 0.43376106
0.15070492 0.30363837 0.43141338 0.2379968 0.016961165 -0.05519104 -0.014624334 0.12755269
0.08110935 -0.073051184 -0.6211062 -0.11678308 0.42351073 -0.28300995 0.21201298 -0.6051615
-0.008593788 -0.37113178 0.585606 -0.58490485 0.43746784 0.3850412 -0.36423174 -0.8974064
-0.43433604 -1.5959151 -0.53725934 -0.21751782 -0.8181581 -0.6325774 -0.4040998 -0.5320987
0.33590138 -0.46159342 -0.81785893 -0.50102496 -0.34875458 -0.06108945 -0.66170275 0.12487532
-0.44624454 -0.3332481 0.39110306 -0.5947167 0.0343902 -0.35025996 0.22078598 0.1292002
-0.50477344 -0.41201496 0.004398465 -0.590281 -0.44583136 0.24795939 -0.5397213 0.3467809
-0.5366173 -0.38037777 -0.6181601 -0.1570031 -0.4848881 0.13100885 -0.35051477 -0.39482543
-0.885584 -0.79150003 0.35102624 -0.8502796 -0.240521 -0.37973997 -0.4637263 -0.34924686
